…
/Users/jonah/Documents/miniconda/lib/python3.9/site-packages/keras/initializers/initializers_v2.py:120: UserWarning: The initializer RandomNormal is unseeded and being called multiple times, which will return identical values  each time (even if the initializer is unseeded). Please update your code to provide a seed to the initializer, or avoid using the same initalizer instance more than once.
  warnings.warn(
Model: "sequential"
_________________________________________________________________
 Layer (type)                Output Shape              Param #   
=================================================================
 lstm (LSTM)                 (None, 80, 128)           90624     
                                                                 
 dropout (Dropout)           (None, 80, 128)           0         
                                                                 
 lstm_1 (LSTM)               (None, 80, 64)            49408     
                                                                 
 dropout_1 (Dropout)         (None, 80, 64)            0         
                                                                 
 lstm_2 (LSTM)               (None, 32)                12416     
                                                                 
 dropout_2 (Dropout)         (None, 32)                0         
                                                                 
 dense (Dense)               (None, 48)                1584      
                                                                 
=================================================================
Total params: 154,032
Trainable params: 154,032
Non-trainable params: 0
_________________________________________________________________
2023-04-04 20:21:19.881048: W tensorflow/core/platform/profile_utils/cpu_utils.cc:128] Failed to get CPU frequency: 0 Hz
Epoch 1/25
…
